data.pth (torch, 5079 bytes, 6 tensors)

l1.weight f4 [8, 56]
0	0xbe7fe760	-0.24990606
1	0x3ed771c9	0.42079
2	0x3e26ff47	0.16308318
3	0x3eb80d4a	0.3594764
4	0x3ef4bf4c	0.47802198
5	0xbde2e295	-0.11078373
6	0xbf38d0b3	-0.7219345
7	0x3ebebaff	0.37252042
8	0x3e2c36af	0.16817735
9	0x3df02943	0.1172662
10	0x3e5af037	0.21380697
11	0x3f5296c3	0.82261294
12	0x3f02d944	0.5111277
13	0xbebda7af	-0.37041995
14	0x3e888e24	0.26670945
15	0xbec791a8	-0.38978314
16	0x3ef3e188	0.47633004
17	0xbec05f27	-0.37572595
18	0x3f21c8b3	0.6319687
19	0xbf38d32a	-0.7219721
20	0x3d8fa1a0	0.070132494
21	0x3f58b263	0.84647197
22	0xbe8b732b	-0.27236304
23	0x3f5e5d12	0.86860764
24	0x3f3173d4	0.69317365
25	0x3f09f66f	0.5389165
26	0x3e2643e3	0.16236834
27	0x3eb59ff3	0.35473594
28	0xbdd92639	-0.106029935
29	0x3f17b3cd	0.5925873
30	0xbdf51a5e	-0.1196792
31	0x3ec8b8db	0.39203534
32	0xbea65f17	-0.32494423
33	0xbedf6828	-0.43634152
34	0xbe4b732c	-0.19868153
35	0x3e0176ff	0.1264305
36	0x3ef3f990	0.4765134
37	0xbe83332e	-0.25624985
38	0xbe6cee0f	-0.23137687
39	0x3e05d9aa	0.13071314
40	0x3e9ad0b1	0.30237344
41	0x3e4eb193	0.20184927
42	0xbf0de045	-0.55420333
43	0xbd1fb204	-0.03898813
44	0xbebd5b08	-0.36983514
45	0x3ee0e4f1	0.43924668
46	0xbd8635e9	-0.06553251
47	0x3ee40259	0.4453304
48	0xbf323a76	-0.69620454
49	0xbe4c85ed	-0.19972964
50	0x3ee13bae	0.43990844
51	0xbd497144	-0.049180284
52	0xbe186e2d	-0.14885779
53	0x3d7425a1	0.0596062
54	0x3e3f0d23	0.18657355
55	0x3e8528a5	0.26007572
56	0xbdab4057	-0.08361881
57	0x3eed58c2	0.4635678
58	0xbed6528c	-0.41859853
59	0x3f11343c	0.5672033
60	0x3f3305ae	0.6993054
61	0x3f101441	0.56280905
62	0xbf0c8912	-0.5489665
63	0x3c660792	0.014039891
64	0xbebec0b6	-0.37256402
65	0xbf18b88f	-0.59656614
66	0xbe8aec97	-0.2713363
67	0xbf54915b	-0.83034295
68	0x3ed39e14	0.41331542
69	0xbe9d08be	-0.30670732
70	0x3ea45312	0.32094628
71	0xbea2320a	-0.31678802
72	0x3efe3ac0	0.49654198
73	0xbdc44647	-0.09583717
74	0x3f0cecb5	0.55048686
75	0xbf0c9852	-0.5491992
76	0x3e4a797d	0.19772907
77	0x3f62ccf7	0.88594
78	0xbe0c3474	-0.13691884
79	0x3f5b8ce4	0.8576186
80	0x3f2d2c74	0.67645955
81	0x3f2b4082	0.66895306
82	0xbea4efdd	-0.3221425
83	0x3eec0bf8	0.4610288
84	0x3e0dcd93	0.13847952
85	0x3f1d470f	0.6143655
86	0x3dc147aa	0.09437497
87	0x3e69b3f5	0.22822554
88	0xbf07e190	-0.53078556
89	0xbe920486	-0.28519076
90	0xbe63a59d	-0.22231145
91	0xbeca6cd4	-0.39536154
92	0x3efda1ff	0.49537656
93	0xbd7b3ee3	-0.06133927
94	0x3e1f23f3	0.15541057
95	0xbf145602	-0.5794374
96	0x39f53165	0.00046766843
97	0xbe07a7ab	-0.13247554
98	0xbee789dd	-0.4522237
99	0x3debe2e5	0.11517886
100	0xbe9d03e1	-0.30667022
101	0x3e361f86	0.17785463
102	0xbe9e611d	-0.30933467
103	0x3f09e800	0.5386963
104	0xbf0c8ca7	-0.5490212
105	0xbdc69d6d	-0.09697995
106	0x3e57be84	0.2106877
107	0x3d3bf72b	0.045890015
108	0xbdabfbcf	-0.08397638
109	0x3e7dc248	0.24781144
110	0xbddfc034	-0.10925332
111	0x3efa653d	0.48905364
112	0x3e7e09f9	0.24808492
113	0xbed55a96	-0.41670674
114	0x3f2b7885	0.66980773
115	0xbeea7207	-0.4579012
116	0x3e92ca2b	0.28669867
117	0xbf87a270	-1.0596447
118	0x3f3626ea	0.7115313
119	0x3ecc5f5d	0.39916506
120	0x3e9e32e5	0.30898204
121	0x3f136c34	0.5758698
122	0x3f076a91	0.5289698
123	0xbf3148cd	-0.6925171
124	0xbe8691cb	-0.26283106
125	0xbee83403	-0.45352182
126	0x3f1e9328	0.6194329
127	0xbe1cafb2	-0.15301397
128	0xbdf7266c	-0.12067875
129	0xbec3659f	-0.38163468
130	0xbe623154	-0.2208913
131	0x3f49465c	0.78622985
132	0x3f091a3f	0.53555673
133	0xbefb9abb	-0.49141487
134	0x3e917f01	0.2841721
135	0xbf0dd538	-0.5540347
136	0xbf2bdee7	-0.67136997
137	0xbece8625	-0.4033672
138	0x3ec2d431	0.38052514
139	0xbea8fd05	-0.3300554
140	0x3f155631	0.5833464
141	0xbf263aab	-0.6493327
142	0x3e9b0786	0.30279177
143	0xbf068b73	-0.5255653
144	0x3e65cd0f	0.22441505
145	0xbe917c55	-0.2841517
146	0x3d9501e9	0.07275755
147	0x3f0430c1	0.5163689
148	0xbe8c38a0	-0.2738695
149	0xbedd9a45	-0.4328176
150	0x3eada92b	0.33918127
151	0x3f335c96	0.7006315
152	0x3f017c3d	0.505802
153	0x3ef636bb	0.4808863
154	0x3e99feb7	0.30077145
155	0x3f317738	0.6932254
156	0xbe332238	-0.17493522
157	0xbe5ddc54	-0.2166608
158	0x3e9ad317	0.30239174
159	0xbdcf6e88	-0.10128504
160	0x3dc0d11c	0.094148844
161	0x3e492665	0.19643553
162	0x3ee0ac2f	0.43881366
163	0x3f1fce85	0.624245
164	0xbee3e9af	-0.44514224
165	0x3f015d09	0.50532585
166	0x3eb6dbeb	0.3571466
167	0x3f0675a0	0.5252323
168	0xbe5715e0	-0.21004438
169	0xbef6290e	-0.48078197
170	0x3f2d2718	0.6763778
171	0x3e9d9093	0.30774364
172	0x3ee061ba	0.4382456
173	0xbf8daf64	-1.106915
174	0x3e5898ac	0.2115199
175	0x3ee1ea53	0.44124088
176	0x3ee57de6	0.44822615
177	0x3f175805	0.5911868
178	0x3f1c58ea	0.6107317
179	0x3f8b92b6	1.0904148
180	0x3ed18d6c	0.4092821
181	0xbe9d10e2	-0.30676943
182	0x3eedc4d2	0.46439224
183	0xbe6fd547	-0.23421203
184	0xbef8d09b	-0.48596653
185	0xbed896ed	-0.42302647
186	0x3ed37bbc	0.4130534
187	0x3e8959c8	0.2682631
188	0xbecc92ce	-0.39955753
189	0x3f206ba6	0.6266426
190	0xbe2bf098	-0.16790998
191	0x3f1bd17b	0.60866517
192	0x3f355ff5	0.70849544
193	0x3d7e9b41	0.06215978
194	0x3ebbd302	0.36684424
195	0x3eb57c63	0.35446462
196	0x3c8c6bb7	0.017141206
197	0xbefb51bd	-0.490858
198	0xbcf8287a	-0.030292738
199	0xbe139ad0	-0.14414525
200	0x3cc9c6c7	0.024630917
201	0xbeeacf80	-0.45861435
202	0xbd3c29de	-0.045938365
203	0x3f344cb9	0.7042957
204	0x3da2315c	0.07919571
205	0xbecb5d2d	-0.39719525
206	0x3d3cd720	0.046103597
207	0x3f33716a	0.7009493
208	0x3efeae9b	0.49742588
209	0x3edcc83b	0.43121514
210	0x3e8106a8	0.2520039
211	0xbe808811	-0.2510381
212	0xbe8ef865	-0.27923885
213	0x3cf8021c	0.030274443
214	0x3ea4d342	0.32192427
215	0xbe25b32d	-0.16181631
216	0xbf2d33e1	-0.67657286
217	0xbe56ece5	-0.20988806
218	0x3e769731	0.24081112
219	0xbe0f8ef4	-0.14019376
220	0xbe95869f	-0.2920427
221	0xbe8f62ed	-0.28005162
222	0x3edeeb26	0.4353878
223	0x3db5bbbe	0.088736996
224	0xbdc37868	-0.0954445
225	0x3f11e678	0.5699229
226	0xbedd071d	-0.4316949
227	0xbeac7509	-0.3368304
228	0x3e6679b0	0.22507358
229	0x3f86cdaa	1.0531514
230	0xbe9c27e6	-0.3049919
231	0xbcdac1a8	-0.02670367
232	0xbe9658e3	-0.2936469
233	0xbebbfb0a	-0.36714965
234	0xbe563bb8	-0.20921218
235	0x3e81cac8	0.25350022
236	0xbd316410	-0.043308318
237	0xbe67005f	-0.22558735
238	0x3f0afca1	0.5429173
239	0x3bfc1279	0.007692632
240	0x3f169c09	0.5883184
241	0xbdbde2b5	-0.092717566
242	0xbe81f932	-0.25385433
243	0xbe9c34d5	-0.30509058
244	0x3f1c78f8	0.61122084
245	0xbe9c243b	-0.30496392
246	0x3da05949	0.0782953
247	0xbe9c2344	-0.30495656
248	0xbe16cfa8	-0.14727652
249	0xbce4f973	-0.027950978
250	0xbe1335e0	-0.1437602
251	0xbea5bea1	-0.32372
252	0x3f18514b	0.59499043
253	0x3f1a8a7b	0.60367554
254	0x3ed467d1	0.41485456
255	0x3e99b48e	0.30020565

l1.bias f4 [8]
0	0x3f38d45a	0.7219902
1	0x3f0c8c96	0.5490202
2	0x3f368a76	0.71305025
3	0x3f167cd4	0.5878422
4	0x3e9c2429	0.30496338
5	0x3f641cd7	0.89106506
6	0x3f47b734	0.7801392
7	0x3f595a8b	0.8490378

l2.weight f4 [8, 8]
0	0xbf4d1a5b	-0.8011834
1	0xbe97fbf7	-0.2968442
2	0x3f61480d	0.88000566
3	0xbf80690d	-1.0032059
4	0x3d139941	0.036034826
5	0x3c640a29	0.013918438
6	0x3f657ec4	0.89646554
7	0x3faec1db	1.365291
8	0x3f6553ab	0.8958079
9	0x3f145a89	0.57950646
10	0xbf88af83	-1.0678562
11	0xbd5cba83	-0.05388881
12	0xbe58d64b	-0.21175496
13	0xbeeeacb9	-0.46616152
14	0x3fa5b4e6	1.2945831
15	0x3f4848d5	0.7823613
16	0xbf4b402a	-0.7939478
17	0xbec030b9	-0.37537172
18	0xbf6e25eb	-0.9302661
19	0xbf042b9d	-0.5162905
20	0xbebf5c4c	-0.37375104
21	0xbefd9fb1	-0.49535897
22	0x3f80c729	1.0060779
23	0xbf43e274	-0.76517415
24	0x3f1c4064	0.6103575
25	0x3ec71bf1	0.38888505
26	0x3f933e39	1.1503364
27	0x3f922366	1.1417053
28	0xbf8bd08c	-1.0923018
29	0x3fd0147f	1.6256255
30	0xbf2b7b5c	-0.66985106
31	0x3ecbf6b5	0.3983666
32	0x3f8e5cb5	1.1122042
33	0x3faf5f37	1.3700932
34	0x3e4e550f	0.20149635
35	0xbf14e7ea	-0.5816637
36	0x3f8670f0	1.0503216
37	0xbf2eaef6	-0.6823572
38	0xbe8e58a1	-0.27801993
39	0x3fa4c79c	1.2873416
40	0x3f972a12	1.1809714
41	0x3f67b640	0.90512466
42	0xbf418a23	-0.75601405
43	0x3e88057f	0.26566693
44	0xbbdb0c30	-0.0066848025
45	0x3f021d09	0.50825554
46	0x3f53b528	0.826983
47	0xbf1f1b99	-0.62151486
48	0x3ef5ae05	0.4798433
49	0xbec99c9b	-0.39377293
50	0x3ef95797	0.48699638
51	0x3f95ede7	1.1713227
52	0x3e4580f9	0.1928748
53	0xbc08caf5	-0.00834917
54	0x3f85e6e8	1.0461092
55	0xbfbb3461	-1.462536
56	0xbf029b3f	-0.51018137
57	0xbefd7f21	-0.49511054
58	0xbe2f41e2	-0.17114976
59	0xbc860613	-0.016360318
60	0xbf24249c	-0.6411836
61	0x3e13bc94	0.14427406
62	0x3ec5c738	0.38628554
63	0x3fa26d02	1.2689517

l2.bias f4 [8]
0	0x3f38c5a2	0.72176564
1	0x3f344b15	0.70427066
2	0x3e622c7e	0.22087285
3	0x3f49d9b9	0.78847843
4	0x3ea94f34	0.3306824
5	0x3e663ae2	0.224834
6	0xbc9817c9	-0.01856603
7	0x3f677ee5	0.90428

l3.weight f4 [8, 8]
0	0xbfb0173e	-1.3757093
1	0x3f182e7a	0.5944592
2	0xbfb5c166	-1.4199646
3	0xbf4cb952	-0.79970276
4	0xbf37e099	-0.71827084
5	0x3f066333	0.52495116
6	0x3f9b4a84	1.2132115
7	0x3d0db58a	0.034596957
8	0x3ed995ae	0.4249701
9	0x3e6ee301	0.23328783
10	0x3f740b93	0.9533016
11	0xbfcd24ee	-1.6026895
12	0xbf93bc81	-1.1541902
13	0x3e711f47	0.23547088
14	0x3e3c321b	0.18378489
15	0x3e807557	0.25089523
16	0xbdfc595d	-0.12321732
17	0x3ee3b4ce	0.4447388
18	0xbeee0867	-0.46490785
19	0xbfd998a0	-1.6999702
20	0x3f2c5661	0.67319304
21	0x3f1e5251	0.61844355
22	0xbfb1e981	-1.3899385
23	0xbf075f2b	-0.5287959
24	0x3f20f8ea	0.6287981
25	0xbfadcdce	-1.3578432
26	0xbf575fdf	-0.8413066
27	0x3f65af52	0.8972064
28	0xbf8fa971	-1.1223584
29	0xbf8de163	-1.1084408
30	0xbf662c8a	-0.8991171
31	0x3f3276af	0.69712347
32	0xbfc88abb	-1.5667337
33	0x3e33043f	0.17482089
34	0xbf2530a1	-0.64527327
35	0x3f38c371	0.7217322
36	0x3deaf302	0.11472131
37	0x3eb622e0	0.35573483
38	0xbf8c523d	-1.0962597
39	0xbd57fdbe	-0.05273222
40	0x3e7cb8a7	0.24679814
41	0xbfacb278	-1.3491964
42	0xbf266303	-0.6499483
43	0xbd3397f1	-0.043846074
44	0x3f83e582	1.0304415
45	0xbf9b239a	-1.212024
46	0xbed8542c	-0.42251718
47	0xbf688d31	-0.9084044
48	0xbf7ef628	-0.99594355
49	0xbfa92c98	-1.3216734
50	0xbea37e65	-0.3193237
51	0x3f36628d	0.71244127
52	0xbf94c1f5	-1.1621691
53	0x3d2d8d7e	0.042371266
54	0x3f6af9b7	0.91787285
55	0xbf906973	-1.128218
56	0x3f9504af	1.1642054
57	0x3ee2ec6b	0.44320998
58	0xbf8122da	-1.0088761
59	0xbf8b9bb1	-1.0906888
60	0xbdd7ab39	-0.10530705
61	0xbf4614ea	-0.7737566
62	0xbf7543cd	-0.9580658
63	0x3f348c9b	0.70527047

l3.bias f4 [8]
0	0x3d15ca79	0.036570046
1	0xbdf920d0	-0.121644616
2	0x3db8f49b	0.0903103
3	0x3e914027	0.28369257
4	0x3d8e05a3	0.06934669
5	0xbd5b65a3	-0.053563725
6	0x3dfed468	0.12442857
7	0x3e147030	0.14495921
